
__________________________________________________________________________________________________
Layer (type)                    Output Shape         Param #     Connected to                     
==================================================================================================
input_2 (InputLayer)            (None, 105)          0                                            
__________________________________________________________________________________________________
elmo_embedding_layer_1 (ElmoEmb (None, 105, 1024)    4           input_2[0][0]                    
__________________________________________________________________________________________________
input_1 (InputLayer)            (None, 1)            0                                            
__________________________________________________________________________________________________
bidirectional_1 (Bidirectional) (None, 105, 1024)    6295552     elmo_embedding_layer_1[0][0]     
__________________________________________________________________________________________________
lambda_1 (Lambda)               (None, 512)          0           input_1[0][0]                    
__________________________________________________________________________________________________
bidirectional_2 (Bidirectional) (None, 105, 1024)    6295552     bidirectional_1[0][0]            
__________________________________________________________________________________________________
dense_1 (Dense)                 (None, 256)          131328      lambda_1[0][0]                   
__________________________________________________________________________________________________
add_1 (Add)                     (None, 105, 1024)    0           bidirectional_1[0][0]            
                                                                 bidirectional_2[0][0]            
__________________________________________________________________________________________________
repeat_vector_1 (RepeatVector)  (None, 105, 256)     0           dense_1[0][0]                    
__________________________________________________________________________________________________
merge_1 (Merge)                 (None, 105, 1280)    0           add_1[0][0]                      
                                                                 repeat_vector_1[0][0]            
__________________________________________________________________________________________________
bidirectional_3 (Bidirectional) (None, 105, 400)     2369600     merge_1[0][0]                    
__________________________________________________________________________________________________
time_distributed_1 (TimeDistrib (None, 105, 13)      5213        bidirectional_3[0][0]            
==================================================================================================
Total params: 15,097,249
Trainable params: 15,097,249
Non-trainable params: 0
__________________________________________________________________________________________________
Train on 3400 samples, validate on 1000 samples
Epoch 1/100
2019-11-08 20:16:25.341257: W tensorflow/core/framework/allocator.cc:122] Allocation of 378470400 exceeds 10% of system memory.
…
